…
  value: '{}'
_episode_storage:
  desc: null
  value: None
train_freq:
  desc: null
  value: 'TrainFreq(frequency=1, unit=<TrainFrequencyUnit.STEP: ''step''>)'
use_sde_at_warmup:
  desc: null
  value: 'False'
policy_delay:
  desc: null
  value: 1
target_noise_clip:
  desc: null
  value: 0.0
target_policy_noise:
  desc: null
  value: 0.1
lr_schedule:
  desc: null
  value: <function get_schedule_fn.<locals>.<lambda> at 0x7f79cc0e9670>
actor:
  desc: null
  value: "Actor(\n  (features_extractor): FlattenExtractor(\n    (flatten): Flatten(start_dim=1,\
    \ end_dim=-1)\n  )\n  (mu): Sequential(\n    (0): Linear(in_features=7, out_features=400,\
    \ bias=True)\n    (1): ReLU()\n    (2): Linear(in_features=400, out_features=300,\
    \ bias=True)\n    (3): ReLU()\n    (4): Linear(in_features=300, out_features=2,\
    \ bias=True)\n    (5): Tanh()\n  )\n)"
actor_target:
  desc: null
  value: "Actor(\n  (features_extractor): FlattenExtractor(\n    (flatten): Flatten(start_dim=1,\
    \ end_dim=-1)\n  )\n  (mu): Sequential(\n    (0): Linear(in_features=7, out_features=400,\
    \ bias=True)\n    (1): ReLU()\n    (2): Linear(in_features=400, out_features=300,\
    \ bias=True)\n    (3): ReLU()\n    (4): Linear(in_features=300, out_features=2,\
    \ bias=True)\n    (5): Tanh()\n  )\n)"
critic:
  desc: null
  value: "ContinuousCritic(\n  (features_extractor): FlattenExtractor(\n    (flatten):\
    \ Flatten(start_dim=1, end_dim=-1)\n  )\n  (qf0): Sequential(\n    (0): Linear(in_features=9,\
    \ out_features=400, bias=True)\n    (1): ReLU()\n    (2): Linear(in_features=400,\
    \ out_features=300, bias=True)\n    (3): ReLU()\n    (4): Linear(in_features=300,\
    \ out_features=1, bias=True)\n  )\n)"
critic_target:
  desc: null
  value: "ContinuousCritic(\n  (features_extractor): FlattenExtractor(\n    (flatten):\
    \ Flatten(start_dim=1, end_dim=-1)\n  )\n  (qf0): Sequential(\n    (0): Linear(in_features=9,\
    \ out_features=400, bias=True)\n    (1): ReLU()\n    (2): Linear(in_features=400,\
    \ out_features=300, bias=True)\n    (3): ReLU()\n    (4): Linear(in_features=300,\
    \ out_features=1, bias=True)\n  )\n)"
actor_batch_norm_stats:
  desc: null
  value: '[]'
critic_batch_norm_stats:
  desc: null
  value: '[]'
actor_batch_norm_stats_target:
  desc: null
  value: '[]'
critic_batch_norm_stats_target:
  desc: null
  value: '[]'
_logger:
  desc: null
  value: <stable_baselines3.common.logger.Logger object at 0x7f79c8ccd0d0>
